sv200c-100_training_0024.pth (torch, 440719 bytes, 8 tensors)

linear_relu_stack.0.weight f8 [100, 299]
0	0x3fa70467d7c0f088	0.044955487334363886
1	0x3f9f14c0605a1a60	0.030352598076684223
2	0xbf9826438044d237	-0.023583464340122453
3	0x3f8fbc342c42ca19	0.01549568901132141
4	0xbfa1fdf23fae57e6	-0.035140581391871525
5	0xbf77de03968f48ea	-0.005826963440045166
6	0xbf95b054fdc7524d	-0.021180465688148954
7	0x3f8f1af14e56e2dc	0.015188107684353573
8	0xbfa05a3339127262	-0.031938172070316254
9	0x3f8432d4fbdb0135	0.009862579284686571
10	0xbf8f8d815c789cf2	-0.015406618723388086
11	0x3f9d9ac3df3b807d	0.0289106945991766
12	0xbf76a4a1f3774172	-0.0055280996525229765
13	0x3fc04288398f9ead	0.12703039942356523
14	0xbfb599fe255d982a	-0.08438099300619287
15	0x3fa48aeee7751515	0.040122476343223
16	0x3f697fdb9ca8ac36	0.0031127251907228327
17	0x3f54708af3b811d1	0.0012475354150193083
18	0x3f9ef7b7fc9c4a17	0.030241846840974498
19	0x3f6a1de8ed28c620	0.0031880902618233314
20	0x3f843a5a56685fc6	0.00987692428775223
21	0x3f65a09f6172fe11	0.002640067377427398
22	0x3f994657b5b6d2f3	0.02468239828677361
23	0x3f81f03b53dfa7d7	0.008758986947174847
24	0xbf69daf8b8e044ab	-0.003156171594135578
25	0x3f971e361637dd11	0.022576184373943656
26	0x3fc01d7be089d5f6	0.12589977706708994
27	0xbfa9d6dc8a2460b1	-0.05046738802246987
28	0x3fa263c3eded8672	0.03591739920990457
29	0x3f86b229214ae3ef	0.011082001999385553
30	0x3f8c98abe3c0405f	0.013963072669895547
31	0x3f70b5336f3e2ff4	0.004079056659872283
32	0x3f7eb726698bb4df	0.007498884246826181
33	0xbf9d177efd8a53fe	-0.028409942841410178
34	0x3f9277182173cdb1	0.0180324335496615
35	0x3f8d61691ca13954	0.014345952211581782
36	0xbf7228ad74873ec8	-0.004433324393587852
37	0x3f8f383cd01455fd	0.015243983364181974
38	0xbfa064977c7de499	-0.03201745409655494
39	0xbfadb282db968636	-0.05800255709187889
40	0x3f96db8d96ed6ee7	0.022321903550035407
41	0x3f9c12580cdd9d10	0.02741372660184732
42	0x3f5c988b0a5b27ed	0.0017453534905365012
43	0x3f957969f4b28cea	0.020970969734332913
44	0x3f9742488082723e	0.02271378788337785
45	0xbfa083b9cf0225e9	-0.03225498821218393
46	0xbf9a7201fa26ce4e	-0.025825529950181107
47	0x3f7d17848711b64e	0.0071025063381121144
48	0x3f9d1a10a0a98cf9	0.028419742399262458
49	0xbf92e682185dda60	-0.01845744394037252
50	0xbf7d39d5c07c0d37	-0.007135233848887971
51	0xbf89119a61fa1261	-0.012240606417671164
52	0xbf9b341bde4b5a4d	-0.026565967028398686
53	0x3fb4df996892ee13	0.08153685381960711
54	0x3f84187625d2fa3c	0.009812281636525026
55	0x3fb6a70acc8d4a6b	0.0884863614458397
56	0xbfb0b09a1a068e7e	-0.06519473204985535
57	0x3fa18062c839a786	0.03418263143687654
58	0xbf754b568b2e7950	-0.005198801099054087
59	0xbf943a3d01295472	-0.01975341147984406
60	0x3f1e66fb2fa3b40d	0.00011597545736537225
61	0x3f881ffed7f211c0	0.011779776539932452
62	0x3f9f156d09b8bcba	0.030355170935021582
63	0xbf94715071804f9d	-0.019963509490551357
64	0xbf7f1a837418f629	-0.007593644609696728
65	0xbfbb44e1d21da412	-0.10651980762271787
66	0x3f94fc4ce28d7a3c	0.020493699386287853
67	0xbfbebba7cc73b108	-0.12005089513303713
68	0x3f812193631bf07b	0.008364821874686115
69	0x3f62899be9649f74	0.002262882723829957
70	0x3f9a83c009e3009d	0.02589321194022941
71	0xbf7cbf866d0a2822	-0.007018590070069693
72	0xbf986664781b8782	-0.02382809622839189
73	0x3fa4cb62146ac3f0	0.040614190094295455
74	0x3f877c3e7b99c29e	0.011467445513717419
75	0x3f8a9af84ee96e14	0.012990894230077855
76	0xbfb01b2c651eadc5	-0.06291463345285482
77	0xbf6155a9b2cac4dd	-0.0021160425588609825
78	0x3fa9dbd9a6be58e2	0.05050544891780519
79	0x3fb768dd0794af03	0.09144383845403685
80	0xbfa6b5de3384efbf	-0.044356292523360256
81	0xbf93848d3b1eafae	-0.01906033204402007
82	0xbf70d4c8718bbee2	-0.004109175665447858
83	0x3fa5a74a0ec033d1	0.04229194097579348
84	0xbf80384aa51d7dbc	-0.007919867671886453
85	0xbf97e3c254b1ef55	-0.02332976953446971
86	0x3f80af5907382ee7	0.008146949322529419
87	0xbf48f2647e0e8706	-0.0007613173184959083
88	0x3f7c65a62b967391	0.0069328776384311045
89	0xbfa49eba73b61ac6	-0.0402735010384752
90	0xbf77985d215fee18	-0.005760539808757702
91	0x3fb796a4c26c7c5c	0.09214238878893027
92	0x3f85dc19dafdcff2	0.010673715587223829
93	0xbfa8b730f6edc520	-0.048272638456987815
94	0xbf8fc9badd3324f4	-0.01552148807094731
95	0xbfa6bf77c4c7ca4b	-0.04442953374009003
96	0xbfa6d859771c41f4	-0.044619365491715884
97	0xbfa3dc3f3a2472f3	-0.038789726111849186
98	0x3f704f46eac34d1e	0.00398185445756674
99	0xbf7106d84d777ad7	-0.004156918460892021
100	0x3f726024b82e62e5	0.004486220775014903
101	0xbf80fa052a03cd77	-0.008289375633899294
102	0xbf72a7f991ffba5e	-0.0045547245826883225
103	0x3f9aeaa8237bd76f	0.026285769620663254
104	0x3f7c855a24304634	0.006963111986821913
105	0xbfc0323acaa944e6	-0.12653288741652274
106	0xbf8c61e30286feca	-0.01385857917273316
107	0x3fa543e8e22b554c	0.04153373490195608
108	0xbfb88a6c926d2f76	-0.09586218428483825
109	0xbf903cd807da3b7c	-0.01585710094382929
110	0x3f9212b128fb8995	0.017649429441811988
111	0x3f944f6fa56158ff	0.019834274739275234
112	0x3f7fcbf276742c50	0.007762858505212369
113	0xbfa62ff387fb0f0d	-0.04333458933754573
114	0x3f8b23b23495c5f8	0.013251678685921128
115	0xbfac6cb56e9939d3	-0.055516881705091635
116	0x3fb207df21794747	0.07043261115293574
117	0xbfcc47cc744b27ee	-0.2209411208953606
118	0xbfc10117252c2fa9	-0.13284577670162648
119	0x3fbd7f4db81a5d8f	0.11522374863340289
120	0x3fa9e6e0d3c65648	0.05058958611622849
121	0xbfb0a377c6272468	-0.06499432170598285
122	0x3f95acf921515561	0.021167652758170678
123	0x3f911e958e1ce5e8	0.016718231963045144
124	0x3fa78abf73b2fe9c	0.045980437158047865
125	0xbf76f63a0e8012b8	-0.0056059139096801755
126	0xbf95239a12c0c523	-0.020643622774689462
127	0x3f9ad6ba311c7f02	0.02620974468948046
128	0xbf9d1dfb49100341	-0.028434683164962896
129	0x3fa590df4d7632c2	0.04212091274812259
130	0xbfcc21fe2bb045cd	-0.21978737958174435
131	0xbfa81c570c7a9d0a	-0.047091217301664726
132	0x3fc9d1c1d1092863	0.20171377856087522
133	0x3faec26d41021cc1	0.06007710856015925
134	0xbf93b2443ecac24e	-0.019234720547219468
135	0xbf5730e75bc54ab2	-0.0014154681549213674
136	0xbf90283c0b771bd9	-0.015778482627663102
137	0x3fb2cddaaa784941	0.07345358526098257
138	0xbf8a875369012706	-0.012953426019652447
139	0xbf47bebb1420159f	-0.0007246411771581368
140	0x3f700c53b3402339	0.003918005899330273
141	0xbf9069b3f734f5d9	-0.016028224910078357
142	0xbfaa9f1daf47ca64	-0.05199520840314589
143	0xbfc7c518a0db355b	-0.18570239881811798
144	0x3fcc5d94bb6d0f9a	0.22160586501751994
145	0x3fb6f04a3878e8cb	0.08960403326719583
146	0x3f76cbfcf0cb906c	0.005565631913416618
147	0x3fb2e9772119397a	0.07387489851064358
148	0x3faa7456e55af500	0.05166884946582151
149	0x3f74596b04a5f700	0.004968088187863762
150	0x3fa2cf09154e37a5	0.036735805369161136
151	0xbf9c6aae6fb21bdf	-0.02775070721375161
152	0x3f9e11c5dcc870cc	0.029364673233531133
153	0x3f7aad749a9abb8c	0.006513076290203378
154	0xbf6ec56ddbc3029d	-0.0037562509224645228
155	0xbfb1383dba541984	-0.06726442145381922
156	0xbfe02e405d0e4c25	-0.5056459252831514
157	0x3fceb85a5ce79d6f	0.2400010064732032
158	0x3fadb5253c1ac193	0.05802265509317119
159	0x3fb34cc04f0e520f	0.07538988046719218
160	0x3fc64abb9bbd58df	0.174155665440316
161	0x3fa6f567e94fc03a	0.04484104846039867
162	0x3f9fb3d3126df54e	0.030959413528298278
163	0x3fa8b9cb01046561	0.04829248797814035
164	0xbfa8aa10a9e0d5a6	-0.048172493683903014
165	0x3f478825d39afdaa	0.0007181343746295772
166	0x3f8e0f01bf15aab6	0.014677060741367636
167	0x3fa05bb4549aa33c	0.03194964916958162
168	0xbfb0092efda7952a	-0.06264012997379056
169	0xbfd9912a98af51a8	-0.3994852534354103
170	0xbfb2414d72f24a8e	-0.07130893760976617
171	0xbfbb2d437f60be37	-0.10615941867649147
172	0x3fb4b4c273be0e2e	0.08088317228071482
173	0x3fc55d47ebd42789	0.1669092084414923
174	0xbf6c33be1e468b04	-0.003442641567930395
175	0x3fbaad2339fc5177	0.10420437017120841
176	0x3faa18361ba537a9	0.05096596801250481
177	0xbfa2207e3e9f956c	-0.03540415300794106
178	0xbf8b7588d1ccc9f4	-0.01340777292498261
179	0xbf840d5b1fdd406f	-0.009791099462433032
180	0x3fa26c9a31ee48a9	0.035984819979732414
181	0xbf803e426fe8e1e6	-0.007931250610554618
182	0xbfb473845b76468e	-0.07988764985045746
183	0xbfc5a29ba1bd7552	-0.16902490041222024
184	0xbfc37be0c4ca8c62	-0.15221795662828003
185	0x3f90e77925062a46	0.016508000263949073
186	0x3fb3841056fb0ee0	0.07623388408233778
187	0xbf7b8aedc8be096c	-0.006724289745650185
188	0x3fb5272be0af909f	0.08262895808690239
189	0x3faf4f6371525a75	0.061152560790266465
190	0xbfaca0e16ec11052	-0.05591492154101786
191	0x3f953e0cb6fa779d	0.02074451319514702
192	0x3f83470749e1a3e1	0.009412819807225805
193	0xbf7c4c165282cc16	-0.0069084999051254505
194	0x3f7dee98246567ca	0.007307619386063233
195	0x3fb7cf3026c4f23a	0.0930051893855727
196	0xbfc3b8263268b47d	-0.15405728780152464
197	0xbfc04a58121705b9	-0.12726879962251106
198	0xbfa9a22b17360832	-0.05006537111604849
199	0x3f9f123630428482	0.030342909522577795
200	0xbfb446d65a81aa82	-0.07920589170104544
201	0x3fa6aca6ee19a70c	0.04428598076340337
202	0x3faa466f303ce3d5	0.051318621290597534
203	0xbfa4f9f15512af08	-0.04096941150177541
204	0xbf907a6ec5ffbb16	-0.016092043719193226
205	0x3f886ba6f281a767	0.011924080157956941
206	0x3f8601306c5e87a4	0.010744455630461953
207	0x3f9c9b574219b37a	0.02793632832474511
208	0x3fdf92a2059a4b5a	0.4933247618402469
209	0x3fb32e6d133eab34	0.07492715568393465
210	0xbfa74f7b7bc5d276	-0.0455282772626661
211	0xbfa0007771781654	-0.03125355968590485
212	0x3faf24f8ccd12d8b	0.0608289480229259
213	0xbfb993a6d06b4f6b	-0.09990923488959218
214	0xbf90a1256c88334e	-0.016239723920125564
215	0x3fa207ada23df5da	0.035214830450950266
216	0xbf897b12f36704f4	-0.012441776326229427
217	0x3fac7467527869b1	0.05557558900564475
218	0x3fa0ef7004e62763	0.033076763723399315
219	0x3f95bcccd34eea0f	0.02122802772258053
220	0x3fa14a923131d8bf	0.03377205706139951
221	0x3fc042f0bb52cf08	0.1270428576150311
222	0xbfd90b6712a96354	-0.39132096121243376
223	0xbfbbf206a1cd821b	-0.10916177225363592
224	0xbfc552f4b2c43bef	-0.1665941117175573
225	0x3f80a5843a62f31b	0.008128197700324294
226	0xbfbb7ec1d9ab927e	-0.10740291179861036
227	0xbfa3e95d031367e9	-0.03888979589983405
228	0xbf9b274f3c542f67	-0.026517141396694834
229	0xbf88b970ed62da68	-0.012072450870943288
230	0x3fa0aa3acaf70842	0.03254874923324326
231	0x3fa1502588b4c68d	0.03381459516311933
232	0x3f8b273e099b84cc	0.013258442562291604
233	0xbf77291e1deb50ee	-0.005654447216063325
234	0x3ff844998949f43a	1.5167479861113535
235	0x3feaefdb1ffe8812	0.8417792916191067
236	0xbfb9894cefc1acb2	-0.09975128987723528
237	0x3fafc445cecbc349	0.062044316762586656
238	0xbfc8c6bd336491df	-0.19356503495613617
239	0xbfc32ebac9db41cb	-0.14986357551835136
240	0x3fabd8d9a919869a	0.0543888110085053
241	0x3fa8a4d95e1cf9bd	0.04813269876329993
242	0x3fbb15124bb51fc1	0.10579027508094808
243	0x3fa3ab842ec3d079	0.038417940815549785
244	0x3fa0dbe8ce208b20	0.03292777553749304
245	0x3f93206983e1376d	0.01867833011083724
246	0xbf7f7a090d002154	-0.007684741358396547
247	0xbfcb376156202848	-0.212627570203326
248	0xbfd4c6151d548b1e	-0.324589995043583
249	0xbfbe5bebff3032ba	-0.11859011631185981
250	0x3f9af3b218edeaca	0.026320250293319337
251	0x3fd28b40802c634d	0.28974926487858427
252	0x3fbc416282c2cb3d	0.11037269298939818
253	0xbfcdee41f016010d	-0.233833543996305
254	0x3fbfd1fefcf3dc6e	0.12429803538894799
255	0x3fbd7bdabf215468	0.11517111936821467

linear_relu_stack.0.bias f8 [100]
0	0x3fc2e10320e8f08f	0.14749182803086966
1	0x3fb6373b036842dc	0.08678025086579616
2	0xbfa824b03b9a2343	-0.04715491035046295
3	0xbf9dcc1dea576c8b	-0.02909895651633269
4	0x3fa65ab8aca4b5c4	0.043660899233468636
5	0xbfc1f80b2e318d06	-0.1403821921877368
6	0x3f718349e79f4bb2	0.0042755972771883356
7	0xbfc032ce25a62f65	-0.1265504535516541
8	0x3fd57d276569b320	0.3357637873039483
9	0xbf7baaea3db134a2	-0.0067547941244587035
10	0xbfbdc59075e3a070	-0.11629584196237075
11	0xbfb33015c0825cb0	-0.07495246839458747
12	0xbfc0a08aa95e7400	-0.1298993422505248
13	0xbfbdf025daf34cee	-0.11694561572521753
14	0x3fbaf6f470980102	0.10533073185797906
15	0xbfa8542e4498a76f	-0.04751724803311574
16	0x3fa8c7ff90e96baa	0.04840086597388134
17	0x3f9e91ea85cf45eb	0.029853500763982337
18	0xbfbffa47d76ca10c	-0.12491272935279002
19	0x3fa387e24e21766e	0.03814608768219051
20	0x3fc4e3058a8956c7	0.16317815079189854
21	0xbfc35c9976c08e5f	-0.15126341150709074
22	0xbfb898bc9c01b649	-0.09608057793385529
23	0x3fdae36ddbc3ccfc	0.4201311727658348
24	0xbfc6d1f909132234	-0.17828286116697856
25	0xbfc3920e451b679c	-0.15289476751678144
26	0xbfbeb8da5f3df911	-0.12000813317533622
27	0xbfb14036d87b178e	-0.06738608155418843
28	0xbfb3a39109397a7f	-0.07671457743843212
29	0x3fa5cdc54a6ac90e	0.042585530599710805
30	0x3fc85922274d1211	0.19022013586995049
31	0xbfbe81f790f0fb54	-0.11917063988310633
32	0x3fb0994d36cf2ad8	0.06483919704548258
33	0x3f9093baee215e69	0.016188545975039412
34	0xbfa0c58de5ff9d35	-0.032757219625461444
35	0xbfa20af8999fa477	-0.035239952805405865
36	0x3fb6472a2f9404d8	0.08702338849618074
37	0xbfc11e528fb2c049	-0.13373786942020363
38	0x3fa0a82446d70541	0.0325328194117085
39	0xbfbd93e2263b9f12	-0.11553777154369652
40	0x3fc2fc9e35d382de	0.14833428982003388
41	0x3fd380645999a574	0.3047114253045813
42	0xbfa4f6c5deb73009	-0.040945228039703414
43	0x3fbad492e7977d07	0.10480611948104378
44	0x3fdea704ed5ab942	0.47894404582156735
45	0x3fbd0da001b96b81	0.11348915140244566
46	0x3fbd69f45b1994aa	0.1148979875957418
47	0xbfacb477fd90c477	-0.05606436701089817
48	0xbfb73f2fc4c189f5	-0.0908079009400707
49	0x3fab80ad7e9e6847	0.05371610804213894
50	0xbfb0b25b974837dc	-0.06522152369890882
51	0x3f960d06ee551eea	0.021534069344197805
52	0xbfb032c23024c651	-0.06327451396352869
53	0xbfbf83544c0529fd	-0.1230976758571742
54	0xbfb4e8ec35737dd3	-0.08167911820373001
55	0xbf95b28bd4375b9b	-0.021188912227298223
56	0xbfb07a6e53c7f260	-0.06436814828334425
57	0x3fdbf150341b03f2	0.4366035946696335
58	0xbfbb18903c03b2fd	-0.10584355797955065
59	0x3fc17f0199487a76	0.13668842300917888
60	0x3fc03248163bfadf	0.1265344723287489
61	0xbfa08c90f33ccda0	-0.032322435085372136
62	0xbfb4c0611be6d579	-0.08106047564691278
63	0xbfb04fa9f1a35da1	-0.06371557378166993
64	0x3f6868b9bff11fb5	0.002979624550366789
65	0xbfbe6c327a107a17	-0.11883845787131296
66	0x3f963336bbd1c501	0.021679740155780006
67	0xbfc7aa9e76243075	-0.18489437836285885
68	0x3fa077c43cd3b9e4	0.03216374628560795
69	0xbfbef5e6bdd9837c	-0.12093965659142997
70	0x3fb8fdb9224fbba8	0.0976215084808546
71	0x3faca5de62b0db6c	0.05595297770235316
72	0x3fc45b4149e74b53	0.15903488262719154
73	0xbf9894d29f240aac	-0.024005213702376224
74	0x3fa908a8681ad9e2	0.04889417906581507
75	0xbfa73eb527a669ed	-0.045400296297163446
76	0xbf83fe2746f586d6	-0.009762102940558941
77	0xbfa4c5ce05a79578	-0.04057163065935304
78	0x3f91b9bd62f02930	0.017310103572563296
79	0xbfa9aaafc9c38f40	-0.05013036096514023
80	0xbf6b6e14a5f10429	-0.0033483889851884286
81	0x3f9ddbf7ba6d5a83	0.029159422639475806
82	0xbfaaa53c6e9dfc77	-0.052041901114528714
83	0x3fa4efee28082a14	0.04089302290602262
84	0xbfbb8238249859e5	-0.10745573895869816
85	0xbfac3376c27434eb	-0.055080138432552626
86	0x3fa0992ebde671e1	0.03241869037740109
87	0x3f9208ff79a10266	0.017612449453965694
88	0xbfb4628060f0c7bc	-0.07962801329338637
89	0xbfcc830314afcde8	-0.2227481699952556
90	0x3fa318bb9600e321	0.037298070965738235
91	0xbfbc8baa02fddbcc	-0.11150610516584364
92	0x3fb47f29550be063	0.08006532980277963
93	0xbf82952b15ec06b1	-0.009073578459268235
94	0xbfb2bd7442544dc1	-0.07320334071510272
95	0xbfaae9421a1d7de0	-0.05256086891926848
96	0x3fbd2e1ace627c38	0.11398475207032355
97	0xbfb3e04e908980fc	-0.07764140156496419
98	0x3fb85dc172199214	0.09518059764520387
99	0xbfb4ea011e7f4088	-0.08169562334592417

linear_relu_stack.2.weight f8 [100, 100]
0	0xbfb14de170b97c0b	-0.06759461404861626
1	0x3f95c3c85b095702	0.02125466399805643
2	0xbf9e380eea4e0dea	-0.029510720301471872
3	0xbfad6906eb4c21be	-0.05744191763193694
4	0xbf64cdd08f75ff88	-0.002539546341438329
5	0x3f8bdd0daad15dfd	0.013605219626852788
6	0xbf9df54e7502cd42	-0.029256082431584625
7	0x3fa10ce1892ea587	0.033301399227023736
8	0xbf837d9dba89a715	-0.00951693749921704
9	0xbfc4e3333d07ca0f	-0.16318359832764925
10	0xbf7d86edb65c69ee	-0.00720875603090086
11	0x3fa52b09e7fac7bc	0.04134398419172622
12	0x3f8df4b68e66165e	0.014626909466424805
13	0xbfa31f3d24c3a925	-0.03734770845206218
14	0xbf7d38eb87794adc	-0.00713436130134212
15	0x3fc2da4e4e2712e4	0.14728716674849018
16	0x3f2d31bd9c78919a	0.00022273482885383223
17	0x3fb51c62474be646	0.08246435394894389
18	0xbfa3f666de0e028b	-0.03898927174214347
19	0xbf9666f702eade55	-0.021877154877726863
20	0x3fba0c3719f6752a	0.10174888976913068
21	0x3fbfec5b33282319	0.12470026015229187
22	0xbf726fc34f23b867	-0.004501116682361062
23	0xbfb03642d6540c62	-0.06332795841812947
24	0x3fae4a25412351ca	0.05915943546429821
25	0xbf8d641e494d071d	-0.014351116764035826
26	0x3fb92a79ddeda929	0.09830438297436629
27	0xbfb65245036138cc	-0.0871928342105292
28	0xbf877458146441d8	-0.011452377435973313
29	0xbfc5ef27537441f3	-0.1713608891955257
30	0xbf967b7df14f6e45	-0.021955459454927845
31	0x3f501dfa6dd8f614	0.0009837098690604939
32	0x3fb5174d6c6f95ee	0.08238681695328129
33	0xbfb116c202986c18	-0.06675350726474993
34	0x3f9997f0fe00d5f4	0.0249936728507318
35	0x3f926538021dec71	0.01796424401207414
36	0xbfc1d82a9a12d63d	-0.13940937541126344
37	0xbfb523e22bde0ec1	-0.08257878848058466
38	0x3fbdb003d4cbb3b6	0.11596702523429667
39	0xbfacfdd1e539ff4e	-0.05662399218726809
40	0x3fc4cc5ecf49a1f8	0.16248688813654133
41	0xbfb1f6c08243a36e	-0.07017138653067231
42	0x3fcde9ed6b1d367d	0.23370139818364413
43	0x3fb00f643c63531d	0.06273485636058891
44	0x3fab4200e5884e80	0.05323794176015628
45	0x3f96149a8b7fea6b	0.02156297184408588
46	0x3fbaf80c37f4faac	0.10534740797172998
47	0xbf8178580b9d3d59	-0.008530319075048242
48	0xbf85586d961617a3	-0.01042256941105874
49	0xbfda597c4f625ab2	-0.41171176674235277
50	0xbfb75afe00dd99eb	-0.0912321807969431
51	0x3fb4b074d2726ea0	0.08081751001230453
52	0x3fb32d3fe0e743f0	0.07490920296483217
53	0x3f923ae72bbc61a2	0.017802822155404414
54	0xbfa2628f3e7dddce	-0.03590819967115132
55	0xbfa9099fabb1a508	-0.04890154810784436
56	0xbfa2392d4e7f82eb	-0.03559247573116927
57	0xbfa0f12448f2ddec	-0.03308976545798345
58	0xbfa8cc41ceb29e6c	-0.04843335769811294
59	0x3fcece97afb25087	0.24067970351154974
60	0xbfc0a25c30f6e465	-0.1299548377117247
61	0xbf897c52eea96091	-0.012444160374045306
62	0xbfac0d0d50db7c65	-0.054787078972133675
63	0xbfd6662e27484818	-0.34998658977667807
64	0xbf988c043a826d0b	-0.023971620627532036
65	0x3f9661645d985251	0.021855896198831385
66	0xbfe0901620c49e55	-0.517588676452713
67	0x3fb04e2c82feed7d	0.06369283865108417
68	0x3f9880fdbf1ace95	0.023929562367540475
69	0xbf976b56702bd7c6	-0.02287039813651128
70	0x3faeea319463f8ef	0.06038050590903931
71	0xbfa9dda8d294dd7e	-0.050519252496481024
72	0xbfb1a3730015c5a9	-0.06890028717113829
73	0x3fdef1a0ea34eeed	0.48349783775095895
74	0xbf90ed444ec3821e	-0.016530101115565292
75	0x3fa9a0d80266c33b	0.050055265706197415
76	0xbfa1e9bbf29aa92e	-0.03498637520290725
77	0x3f904ae67a11ec73	0.015910721970140828
78	0xbfc186c8ab7d8384	-0.13692577718304844
79	0x3f90144f44fade8b	0.015702475152208833
80	0xbfb08d4fb4ae4984	-0.06465624009277887
81	0xbfb914e44ae3a009	-0.09797503307675028
82	0xbfacb26557c24d9d	-0.05604855247761551
83	0x3f95f6089a3fa0a8	0.021446356215080314
84	0xbfa91c40a0c4c16b	-0.049043674111433365
85	0x3fb4b0829ee48d37	0.08081833247392899
86	0x3fc058d67efb365e	0.1277111167932387
87	0xbf965f3e91750ec0	-0.021847703578955047
88	0x3faaec00e14904ab	0.05258181333602726
89	0xbfaa2d577e4eebb3	-0.05112718026017351
90	0xbfdc765c90f80f87	-0.4447242179596675
91	0x3f903aa4ca78fbba	0.015848708017297965
92	0xbf99e35ec1c82dea	-0.025281410768043168
93	0x3f9a8239b39dba27	0.025887395465753606
94	0x3f72b907239732f0	0.004570987593478945
95	0xbfaea690ced68bf5	-0.05986454510573217
96	0xbfb05a5e3b9c0dfb	-0.0638789077311727
97	0x3fc45c1af1474f23	0.1590608289831091
98	0xbfb34a6fc0d52c61	-0.07535456140355869
99	0x3fbcf7257fe119c0	0.11314615604451372
100	0xbf910a623efcbc72	-0.016641173452793763
101	0xbfbf06a1a77f003a	-0.12119493808040796
102	0xbf9be3b004dc55b3	-0.02723574666659596
103	0xbfae9db83caa91af	-0.05979705563121073
104	0x3fb3abaf6e03fae1	0.07683845935751378
105	0xbf9f646453b30587	-0.030656402214622538
106	0xbfb7ec01554f1d3f	-0.09344490368595347
107	0xbfa25bbc69903c55	-0.03585614002815222
108	0x3fb5026a4f937c8b	0.08206810419823023
109	0x3fd2b126ea185dd1	0.292062500580383
110	0x3fb1f022d11105a5	0.07007043461000835
111	0xbfb97ae4f930421b	-0.09953147014335466
112	0xbfaa1a14805a1ab2	-0.05098022524639613
113	0xbfc8fe9f7375abc9	-0.19527047288587898
114	0x3fa179ebd56db44e	0.034133310130393654
115	0xbfb1c4e9445822bf	-0.06941087645112541
116	0xbf8d4376df9c6090	-0.014288834284841095
117	0xbfc2300774a74eac	-0.1420907325360664
118	0xbfc757a410af298d	-0.1823620873895603
119	0x3fc24734dabe2858	0.14279804878998692
120	0x3fd20aba84c624a1	0.28190482107363307
121	0xbfb85f8102066718	-0.09520727443159804
122	0xbfa19fcfd56b73dd	-0.03442239265653033
123	0xbfb4e1bbc1da5d06	-0.08156941874255005
124	0xbfb7aee506ed9010	-0.09251243037357448
125	0xbfb0b5307af6f0bc	-0.0652647304731912
126	0xbfbb9d9ec69ef25e	-0.10787384366171568
127	0xbf905f266cc16006	-0.015987968814755525
128	0x3fc2d97c0e54043d	0.14726210307711254
129	0xbfc5e7452d44140a	-0.1711203070664456
130	0x3faea3678b82fa90	0.05984042718909166
131	0xbfb15c85d65cde32	-0.06781803592172578
132	0xbf98865f25bf96fb	-0.02395008724115309
133	0x3fb0b3bddab4c4c7	0.0652426394415385
134	0xbfa61a447c2734f9	-0.043169155269064015
135	0x3f9045bf74927f5e	0.015891067018514497
136	0x3f94a660cc2daa2c	0.020165932142314144
137	0xbfc51a8b39abc703	-0.1648725539776522
138	0xbfacc0d75b70784c	-0.056158761894253034
139	0xbfaf3814f0e3ed7b	-0.06097474518352449
140	0x3fc6f2c89af16ff6	0.17928416791517038
141	0x3f8d3fc1357e00a3	0.014281758732750232
142	0x3fbe4bca1f9f35bc	0.11834395668048264
143	0x3fb478454d62ac69	0.07996018542569207
144	0x3fc685b3f26ab511	0.17595528923758555
145	0xbfba62d060da63a7	-0.10307028164460395
146	0xbf83a7f43d805c64	-0.00959769070327194
147	0x3fb6f1c9941fb399	0.08962688318543001
148	0xbfa9172cdabb97e1	-0.04900493784025151
149	0x3f9c2cc17227f953	0.027514479248560274
150	0xbfb3974d704fa37d	-0.0765274428555482
151	0x3fc7ae2285223792	0.18500167370478643
152	0x3f9ca1c6459ac8e2	0.027960870741204576
153	0xbfaae9c76ea7a923	-0.05256484246986506
154	0xbf9c642a8a7a8ad2	-0.027725853635852733
155	0xbfcc01c9eec8ce14	-0.21880458983797324
156	0x3fc4fc6e38f783b5	0.1639535692366089
157	0x3f957c2e16ccfbee	0.020981521741528945
158	0x3f7888b3946de768	0.005989743693925444
159	0xbfc300862d114527	-0.1484534950309719
160	0x3fb5b4dff565dc1a	0.08479118100318353
161	0x3f8670bd7e02b717	0.010957222373999138
162	0xbf8ca5d6811c33ef	-0.013988185706262228
163	0xbfb59565fb367622	-0.08431088812945878
164	0x3fcc851ab92cd229	0.22281202356102028
165	0x3f9c641013bab2aa	0.027725459293537348
166	0xbfc320fd8bf578ae	-0.14944428762368517
167	0xbfa7a54a7cdaa0ff	-0.046182945004433755
168	0x3faa50c8260d5ae0	0.05139756645683291
169	0x3fb3a0b301a8b315	0.07667082586767678
170	0x3fb16b0504b87439	0.06803923955199388
171	0xbfb203245f7f93d8	-0.07036044436934163
172	0xbfbd6fa2064605c4	-0.11498463299906009
173	0x3fa8ef3c587bde8d	0.048700223733189586
174	0x3f9a5c5e5e3e8b6d	0.02574298334333085
175	0xbfba2b1b90fca752	-0.10222027101249623
176	0xbf95a6b7b7aca499	-0.021143789849848636
177	0xbfb212fd8e7fadd8	-0.07060227135632802
178	0xbfb351717e80dd29	-0.07546147669278426
179	0x3fb411d74b823c4a	0.07839723199343598
180	0xbf62abbc737df46f	-0.0022791557966557667
181	0xbfba4c90f671cbbc	-0.1027308084174327
182	0xbfc3c7c6a1c72996	-0.1545341768199477
183	0xbf853bb7f49cd1fa	-0.010367810394748201
184	0x3f7d27013caf5d73	0.007117276031713404
185	0x3fa8789af813bcd9	0.04779514578137318
186	0x3fa06cc0c606ecb3	0.032079719708656106
187	0x3fc393b11763dc78	0.15294469492048157
188	0xbfa5ca494e1637d0	-0.04255894735534549
189	0x3fc2ab3a55fb630d	0.1458504600366485
190	0xbfb97958558388d1	-0.09950782859553732
191	0xbfaaf3d0c0d26516	-0.05264141420156869
192	0x3fc0e36306438ad2	0.13193929487086692
193	0xbf70e1fa9fcd062a	-0.004121760369174813
194	0xbf961828ef52ce15	-0.02157653771128139
195	0x3facd34b738f6835	0.05629955087324882
196	0xbf78f3489ee8d35e	-0.00609138839222542
197	0x3f99445909262453	0.024674788649950163
198	0x3fab633a82beb7d4	0.053491428814012615
199	0xbfbd0166e4af745e	-0.11330264170779134
200	0xbf8b5561d01e2259	-0.013346447147129558
201	0xbf715d59f67d4b10	-0.004239417474155585
202	0xbfb178278c225384	-0.06823966189615588
203	0xbfb444a3661a6ef1	-0.07917233698611505
204	0x3fcc700cfa3ab41e	0.22216951578357763
205	0xbfb8174c924ff8ff	-0.0941055161674491
206	0xbfb581664374694d	-0.0840057291683582
207	0xbf768ff6a4a269f9	-0.005508387994405777
208	0x3f82cbff19df5d61	0.009178154923502548
209	0xbfa90bce0b03b1ac	-0.048918188900504006
210	0x3fa388b48d5c83ee	0.03815235353091127
211	0x3f74e0227094edb9	0.005096563845025264
212	0xbfd7709b23d0f671	-0.3662479257362526
213	0x3f9404f034b66e4b	0.01955008813602736
214	0xbfb6efe7789d56bb	-0.08959814734165665
215	0xbfc17a023740f1ab	-0.13653590867933238
216	0x3f9a1fa3aa6b61d0	0.025511319424227186
217	0x3fc31667dfd01662	0.14912126949654964
218	0x3f91253549c7697e	0.016743500354871703
219	0x3f9c0f12990ae8dd	0.027401247588138545
220	0x3fc21f3886de8552	0.1415777834454653
221	0xbf81aa2d0bb9ca11	-0.008625366134968922
222	0x3fa03e60c0d938e7	0.031725905934409764
223	0xbf9f940c2365ea2a	-0.03083819356968768
224	0x3fa7f15d9ae159c3	0.04676334872845047
225	0x3fa3f8497690a104	0.03900365421606192
226	0x3fb0006b59a64607	0.06250639857014316
227	0x3fc8d6be85981593	0.19405347369335554
228	0x3fa0c3acc0ea1b16	0.03274288039124522
229	0xbfaa6385080e1fc4	-0.05154052470521678
230	0x3fad7cd4fd4dfbb7	0.057593017502760295
231	0xbfb5534128fec24c	-0.08330161333902558
232	0x3f815af3c0b99897	0.008474258727073454
233	0xbfc5bbec36c25baa	-0.16979744600095376
234	0x3fb41074cb015629	0.0783761020296302
235	0xbf8036920c331c8e	-0.007916584965995701
236	0x3fbdc3072d6e93fd	0.11625714167765007
237	0xbfac855c3a0cae4d	-0.05570495804417117
238	0xbfc31bfe46466b89	-0.14929178649330435
239	0x3f639553cb3ed35e	0.00239054075242466
240	0x3fb4ff16614ebc71	0.08201732516930506
241	0x3fc9a47883d0196e	0.20033174930740522
242	0xbfbc03ab645b3662	-0.10943099212746568
243	0xbfb34e738415b6d3	-0.07541582083441804
244	0x3fcb6446807b35bd	0.21399766229153086
245	0xbfbda0d3f0a09ec8	-0.11573528885548534
246	0x3f9f684d59cb340a	0.030671318631721824
247	0xbfb0de0d88d6f639	-0.06588825789273124
248	0xbfb19774de7085a1	-0.06871729307797249
249	0x3fa2d10136d5d31b	0.0367508296430172
250	0xbfb20c023eb1976e	-0.070495739275058
251	0x3f8f9461b87a82af	0.015419734423006785
252	0xbfa70ccd95430145	-0.04501955458681776
253	0xbf9e32f18fc83eff	-0.029491209412355165
254	0x3f71e130ed487e14	0.004365149613050363
255	0xbfb8291b69a13412	-0.09437724427080266

linear_relu_stack.2.bias f8 [100]
0	0xbfd03af27189f1aa	-0.25359784209993086
1	0x3fe4f28ecef23149	0.6546091119685481
2	0x3fd627c0f876c25e	0.3461763788609796
3	0x3fccedbde6730b28	0.22600530388270923
4	0xbfcf581cc34ab5d6	-0.24487647567495568
5	0x3fa31741b3c19a78	0.03728680915155719
6	0x3fcfa53fe28d6760	0.24723051607252966
7	0xbfba03ff8a2f791c	-0.10162350772541057
8	0x3fc11cf1e19252c4	0.13369582666623192
9	0xbfd232176a08c16f	-0.28430734019186493
10	0xbfbd64f12bfd428a	-0.1148215038676971
11	0x3fbf371c4a5a2056	0.12193466963992824
12	0xbfaebdbcda5fcf3c	-0.060041333825124416
13	0xbfad29a792ae94c7	-0.0569584242396473
14	0x3fc84987496b11e3	0.1897439106452473
15	0xbfb38816beaf1033	-0.07629530101172648
16	0xbfb745784aa21746	-0.090903776379574
17	0xbfcd61f50b5cfbf3	-0.22955191664547633
18	0xbfd48619eed561d2	-0.3206848938330299
19	0x3fb5deca85886c8f	0.08543077240067219
20	0x3fb2bdc4ee2d8be2	0.07320814909830589
21	0xbfadbe0a0c4814e7	-0.05809050941392418
22	0x3fcb5b6d5dad709b	0.21372763704392103
23	0x3fb208fbced88fe6	0.0704495792384133
24	0x3f9444ca195a2b98	0.01979366092431753
25	0xbfcaff9a41a43a3a	-0.21092537121917748
26	0x3fda5b275aecbc0d	0.41181358222360204
27	0x3fb7820346fae56f	0.09182758791839317
28	0x3fa766e11f24b98b	0.0457067823903002
29	0xbfe0ad0291a2cd20	-0.5211193890048982
30	0x3ff204374a768809	1.1260292919837431
31	0xbfdd66aa8425859f	-0.4593912401670312
32	0xbfa266541da32690	-0.03593695508750472
33	0xbfc91bc12115a518	-0.19615949740845262
34	0x3fd3af026eea410b	0.30755673247860277
35	0xbfc9e140f9a1af05	-0.20218670071641767
36	0xbfabaf33e0b23d8b	-0.05407106511949696
37	0xbfaa957ad535fde9	-0.05192169048950374
38	0x3fa2b8d9ad5e1bea	0.03656654588035464
39	0x3fcac439753fc261	0.2091132948403525
40	0xbfc8492e7ebe640f	-0.18973332585008548
41	0x3fe142cae4d0a53d	0.5394033879321466
42	0xbfe62e48fc2e04ba	-0.6931500363717966
43	0xbfd05bfadfd0cc66	-0.2556140123080638
44	0x3fd3716478bc8ba1	0.30379592695879337
45	0xbfc06da9fb00f3b1	-0.12834667926827373
46	0xbfc6eab266dccf79	-0.1790373804338932
47	0x3fd3244d093cc4d7	0.29909063245857
48	0xbfe49e0af5a49275	-0.6442923352920632
49	0xbfc502120e0654d7	-0.1641256874542367
50	0x3fe6091111e4be69	0.6886067723734871
51	0x3fe0663d1d119efb	0.5124803130865695
52	0x3feb964dceaf1690	0.8620976483150162
53	0x3fc4006f5a3e35b5	0.15626327425381495
54	0xbfd240403930ad6f	-0.2851715620515369
55	0x3fadd06cb52a3d9b	0.058230778803699944
56	0xbfcb931a2a8170f5	-0.21542670321912963
57	0x3fd1aaf31b590c57	0.27605893774688667
58	0x3fb3c2e3ef49b128	0.07719254104603535
59	0x3fd4e489b09ca25e	0.3264488434529421
60	0xbfc67a14608f92d5	-0.1756005736816834
61	0x3fe067ffebc2f83e	0.5126952748030431
62	0xbfa010fa9c4d7f72	-0.03137953908912906
63	0x3fbc275069d4eddf	0.10997488578589508
64	0x3feb1bb0026ef4c8	0.8471298263099465
65	0x3fd5f5a94d03c1e8	0.3431189777466259
66	0xbfa6d5fe1023f159	-0.04460138270403275
67	0x3f7947762228c624	0.006171666582802913
68	0x3fad883205c1978a	0.05767971344248142
69	0xbfcc8995d723a36b	-0.22294877056927062
70	0xbfb805bada2c6c3d	-0.09383743120672335
71	0xbfdbef35c535dcf1	-0.4364752221949422
72	0xbfa0edcf7226adef	-0.03306434887357656
73	0xbfca8286627123fb	-0.20710830504165742
74	0x3fba0de4584a545a	0.10177447467352022
75	0x3fadceaa05c19080	0.05821734733834294
76	0x3fc5d280f3d38619	0.1704865637357649
77	0xbfc9cd9432493de3	-0.20158626990676884
78	0xbfbdd18c5dc48277	-0.11647870339630538
79	0xbfd7d07d34c82071	-0.37210016397921836
80	0x3fe2c29deb0feb73	0.5862569418962792
81	0xbfc4eeec03142278	-0.16354131841969255
82	0x3fe1924c6c561ef7	0.549108707041312
83	0xbfd1084b6f59a508	-0.26613126634636375
84	0x3fe253455fbfd2a0	0.5726649160483994
85	0x3fe770a8883ec11a	0.7325022374189161
86	0xbfb7e146345dc6c8	-0.09328116205667947
87	0x3fc1e0e9572f4a50	0.13967625386301785
88	0xbfc30b774b6728e6	-0.1487874143770746
89	0xbfb09bbd3ad3a04a	-0.06487639127920022
90	0xbfc9adfd1bacd308	-0.20062221385310175
91	0x3f998ffd6a9b658c	0.024963340408111587
92	0x3fbba9f1d1cb7567	0.10806189891760241
93	0x3fd65395e6a0518a	0.34885165712446364
94	0xbf9340a360c4c619	-0.01880126264695123
95	0xbfc5cd825ada89be	-0.17033414303030087
96	0x3fa905c474a304c6	0.04887212680615387
97	0x3fcde080eedac8c0	0.23341380751441498
98	0x3fabb214eff9f635	0.05409303120994161
99	0x3fbe6590243b63ac	0.11873722920007762

linear_relu_stack.4.weight f8 [100, 100]
0	0x3fa55e9a403d7bc2	0.04173738512212523
1	0x3f98754c1e87835a	0.023884953845370795
2	0x3fb2951032dcc36f	0.07258702508694424
3	0xbfb395428b019455	-0.07649627584176362
4	0xbfb85fb4c3ed1a2a	-0.09521035941461578
5	0xbfa7361af1f8951f	-0.045334665334204376
6	0xbfc0a7ad3614f6b9	-0.13011708393780966
7	0xbf934304f3602422	-0.018810345987763218
8	0xbfc7db731139da19	-0.1863845666991473
9	0xbf9f57266a59cd21	-0.030605888596665246
10	0xbfae3b903c6f5007	-0.059048182847306
11	0xbfbfee2bfbdfc76a	-0.12472796344061768
12	0x3fb7ae5e8cb62dce	0.09250441489546476
13	0x3f513cb25e209147	0.001052068888847195
14	0x3fc0c6aa32b63c17	0.13106276966252103
15	0x3fc2c243e43819a3	0.14655350345146897
16	0x3fb2e7b163b4667d	0.07384785350986962
17	0x3fc6ef756db886f7	0.1791826997514858
18	0xbfb9be81a9a2007f	-0.10056314841676971
19	0x3fc0ba9de9a2ed5e	0.1306950941851523
20	0xbfa6c9204bdcd3c1	-0.04450322080666736
21	0x3fa048b55e7b95eb	0.03180472162584266
22	0x3fa5bba90a8cad72	0.04244735959795322
23	0xbfb9ee42deb72f44	-0.10129182755843852
24	0x3fb9580a78082872	0.09899964743104464
25	0x3fa31341181848b5	0.037256273452059764
26	0xbfc3f39bf74e599f	-0.1558718640851113
27	0x3fbc3d1efdfde7a8	0.11030763340923377
28	0x3fa503a57ef26cfc	0.041043445345360724
29	0x3fb0d5162f84f3cd	0.06575144443645727
30	0xbfa14ddb4cae7d8b	-0.03379712401442266
31	0xbfbc5867a97fd2be	-0.11072395218054518
32	0xbfb9abfb90a127e4	-0.10028049736970918
33	0x3fad91870f1e66d6	0.05775091228060851
34	0xbfb5b67abe601ae6	-0.08481566570126695
35	0x3fb2176faaed4f2e	0.07067010806104854
36	0x3f9aa94df5c0720c	0.026036470531936515
37	0xbf95f10140a76bf3	-0.0214271732055344
38	0xbfb146dcd004958b	-0.06748752668916873
39	0xbfb4e43882beada0	-0.08160737220776193
40	0xbfc905f53cb37437	-0.19549432243266704
41	0x3faa446c1eb06932	0.051303271051624924
42	0x3fa3c69c3875f46c	0.03862465085237762
43	0x3fa1adaa479fa449	0.034528084986796666
44	0x3fab243056c90dc3	0.05301047381774595
45	0x3f9dcd54d2123e9b	0.02910358936475053
46	0xbfbae94f429dac29	-0.10512252212872454
47	0xbfb2d955ddf0ec93	-0.07362877529605986
48	0xbfbe6ddd804f2cc3	-0.11886391050863936
49	0xbfa1f22271de2b8a	-0.0350504650114863
50	0x3fb7f052137b27d3	0.09351075149166314
51	0xbf886767974d9aa4	-0.01191597872248213
52	0xbfc56f74ff90d8f7	-0.16746389845656726
53	0x3fa40a31bb301428	0.039140276050638356
54	0xbfc6171f55a42660	-0.17258063966464743
55	0xbfac5a1724baa2af	-0.055374835237050994
56	0x3fc243d23d68e3f6	0.14269474028131385
57	0x3fc625107b109eff	0.17300611504582972
58	0xbf917049f833a14c	-0.017029910825756375
59	0xbfad8579c5a5cda1	-0.057658963562882144
60	0x3fa84c94dbb38fbf	0.04745927030469898
61	0xbfc5cc1fdb453c50	-0.1702918835312368
62	0xbfd30c4a952b1254	-0.2976252037736107
63	0xbf70c4b5f6b48096	-0.00409384803359116
64	0xbfa2de4e682e1316	-0.03685231229522949
65	0xbfb512b7875a97bf	-0.08231684736764942
66	0xbfb1a5cc83ee03bc	-0.068936140260134
67	0x3fb98d2229896ade	0.0998097754867717
68	0x3f8666de5a5541a1	0.01093839371847666
69	0xbfacabdfafdaaba9	-0.05599879285485738
70	0xbfc2558bac5dfb0d	-0.1432356444965638
71	0xbfb33a75e7db405b	-0.07511078749235038
72	0xbf9de2fb9da5f55f	-0.02918618344982826
73	0x3fbc7845c9b372e5	0.11121021437015662
74	0xbf9cdf695edf4ef1	-0.0281959976344543
75	0x3fb54a0d15e8e1fd	0.08316118035225624
76	0xbfbdeec166ef62c6	-0.11692436945976245
77	0xbfa7e8b43e8e1107	-0.04669726623163411
78	0xbf6992a907ac0394	-0.003121690880448511
79	0xbfaaccac869dcf88	-0.05234278815524279
80	0x3f9a8dd748257c29	0.02593170526358449
81	0xbfc4eea1b6fd901b	-0.16353246150095022
82	0xbf88e18a673cc1e8	-0.012148934627107047
83	0xbf9a9fd6e5ee166b	-0.026000364097419053
84	0xbfbcd28a549bd7b2	-0.11258759084361605
85	0xbfb64a9f97c24636	-0.08707616286326289
86	0x3fac6b7258e3734e	0.05550725302757674
87	0x3fc68d80bdf9248e	0.1761933257678589
88	0x3fb4d99ab55d52d3	0.08144537856908167
89	0xbfd251c2daf7258b	-0.28624030478803125
90	0xbfa9a4c6306f72f2	-0.05008525220157435
91	0xbfc1ca6af102f1e0	-0.13898979919566923
92	0x3f94bbcf5aa3dc66	0.020247688204986146
93	0x3fad9952c9d25ab2	0.05781038964885478
94	0xbfbed4af21b8a30d	-0.12043280194542323
95	0xbf87a3d6808ca401	-0.011542964742675467
96	0xbfd235832f026815	-0.28451613989602836
97	0x3f9dcf1be1fd9177	0.029110370319715053
98	0x3fc55790b1013090	0.1667347778587822
99	0xbfc8e33ce7a6302a	-0.19443475066179988
100	0x3f945aeddbafa4d4	0.019878117116523722
101	0x3fc2a766ffade0db	0.1457337139543203
102	0xbfaf5f9221f533a1	-0.061276022572747786
103	0x3f9c039b8e25ce6a	0.02735751204586593
104	0x3fb1212aef4df480	0.06691234915156663
105	0xbfb8b4211e1b198b	-0.096498555994094
106	0xbfa45253aa9c262a	-0.03969060380593377
107	0xbfc2e38b200a0f2a	-0.1475690752450814
108	0xbfaa9983a274e795	-0.05195247037995824
109	0xbfcce90fbf82ce6c	-0.22586247302170948
110	0xbfbc5e7c0718b6a1	-0.11081671880011836
111	0xbfb131faf258c2d0	-0.06716888825099976
112	0xbfb278c692255962	-0.07215539043440836
113	0x3f9cedfd0c4b24ee	0.028251603961312925
114	0x3f769b18f14499f6	0.0055190061869212406
115	0x3fbc152cd65b32aa	0.10969810708338437
116	0xbf9a2d0c9c927dd8	-0.025562474304590882
117	0xbfb4357604b172f3	-0.07894075026110751
118	0x3fab89826027c285	0.05378348754664323
119	0x3f95d047e4988e6b	0.021302340819728743
120	0x3fb35d278f48a327	0.07564017532480403
121	0x3f98c6adb8276241	0.024195398678644734
122	0x3fbd6b9e770f804b	0.11492338568450682
123	0xbf993ebf6c2a037e	-0.02465342614823695
124	0xbfa65d81f6f94303	-0.04368215694251456
125	0x3fb1f52c8cb90a5f	0.0701473086892661
126	0xbfa8eb41e2aa507a	-0.04866987125311169
127	0x3f979e76beeb8414	0.02306542911799532
128	0x3f83fd81d6018d62	0.009760870307394757
129	0xbfa327af5967a696	-0.03741214720123513
130	0xbf7c3117004cbbe5	-0.006882753227542592
131	0x3fab6f9bb057bb43	0.05358587768193115
132	0x3fa4560359e8a71b	0.03971872780341653
133	0xbfa81816c80415ea	-0.04705878440476481
134	0x3fbad20417c45d36	0.10476708965540102
135	0xbfad3f1446dd735d	-0.05712188115169312
136	0x3fad174ee481acda	0.05681845225702782
137	0xbf9274d480c80a4b	-0.01802379642505007
138	0x3fa35f99d5e085d3	0.03783875213435874
139	0xbf8031c6051b0567	-0.0079074354465571
140	0x3fa2b04fc61348c1	0.036501400879971786
141	0xbfb6c3a51038b24f	-0.08892280241043092
142	0x3fbb39783ac442a6	0.10634566721661062
143	0x3f97918bb297313c	0.023016150260262366
144	0xbfb4c2d665327ee0	-0.08109798403392743
145	0x3fa56ca31b706378	0.04184446058224628
146	0x3f4938efa4370a76	0.0007697267650928613
147	0x3fae0586dac4bb8a	0.058635915951859977
148	0x3f9674d28ba6d114	0.021930017255457804
149	0xbf8f57a64faa13e9	-0.015303897195971987
150	0x3fabbb8b534c2daa	0.054165223997269266
151	0x3facb208d2423bd3	0.05604579512247878
152	0xbfa20daf31d408d7	-0.03526065333609701
153	0x3fa66e05187b6c53	0.04380813526014351
154	0x3fa480c66b69d74e	0.04004497586440313
155	0xbfa224eaacd9c284	-0.03543790206902478
156	0x3f6bc5a49daa8b1b	0.0033901419786429693
157	0xbfb89b23f74194b6	-0.0961172560360691
158	0xbfb036f3878c3282	-0.06333849009770101
159	0xbf978d5578ab6057	-0.023000083437040377
160	0x3fa86cbb443348ec	0.04770455558322503
161	0x3f7dfec6c0b59ddd	0.007323051813137718
162	0x3f973197e0bb3673	0.02265012082243918
163	0xbfb0918b4e6da717	-0.06472082772020503
164	0xbf7aa23ba7e25f5e	-0.006502373724423053
165	0x3f953103fb0a61a0	0.02069479198198254
166	0xbfaa956c987bf3ac	-0.05192126618746981
167	0xbfb3f3e3822ffdaa	-0.07794019630818264
168	0xbfab4b2ba0a69dd5	-0.05330787979192634
169	0x3f6390b9e7228794	0.002388346759361457
170	0xbfa17775e719d669	-0.034114536724627005
171	0xbf9251711d2848c0	-0.01788880100691226
172	0x3fae2ae60812652e	0.05892104004414943
173	0xbfdb3fc35e2871d5	-0.4257667941581336
174	0xbfa1d4da43a54d32	-0.03482706142190252
175	0x3fc060f86b75eef1	0.12795930144408588
176	0xbf87ab7c289c910b	-0.011557550420157733
177	0xbfb09a15cbc28013	-0.06485115265468293
178	0xbf93df26c13a5516	-0.019405942481701542
179	0xbf8fa725f5143d6b	-0.015455528775901247
180	0xbf914f3e66bd2c95	-0.016903853436173028
181	0xbfa8d03f552b847b	-0.04846380152390225
182	0xbfae08b42a955b73	-0.058660154531643104
183	0xbfad55cbc4f799a1	-0.057295196336599526
184	0x3fb29caaa87691db	0.07270304310674851
185	0xbf8d4b3cda38ed7b	-0.014303660783403718
186	0xbf56f607641ecfbc	-0.0014014312914527446
187	0x3fbce9c107be1159	0.11294180335068428
188	0x3f829b2c952dd80a	0.009085033705314789
189	0xbfb8aef8992b8de8	-0.0964198469114802
190	0x3f9c4efc642e8b59	0.027645057310688646
191	0x3f831b2c46e53b88	0.009329172051961057
192	0x3f9f4321144c6e8f	0.030529515136648085
193	0xbfa4ab9b135d264e	-0.040371748079064504
194	0x3f9c99799d9e6aac	0.02792921089676763
195	0x3fbaa10e08ce13b8	0.10402000155416047
196	0xbfb48dba9947986d	-0.08028761140994485
197	0xbf7173419ed1688a	-0.004260307626362212
198	0x3f9b918c781f3f38	0.026922411758106807
199	0xbfc9565a6683d94c	-0.19794778829209247
200	0xbfb5e32ba4b611e0	-0.08549759646672994
201	0xbfb539221aeebc41	-0.08290303380521015
202	0x3fa6944be1102b27	0.0441001617656041
203	0xbfa3d98fc54519e7	-0.03876923831062467
204	0xbfa50f488306f85a	-0.04113222693875747
205	0xbfb1b635c91ebef5	-0.06918655548247073
206	0x3fb6dc1ac5008686	0.08929602918262888
207	0x3fbdffd519e28066	0.11718494302704272
208	0x3fc440dc0e7806a5	0.15822935778128513
209	0xbfacc126b6de11eb	-0.056161126921356296
210	0xbfc6cb9512460373	-0.178087839052775
211	0x3fb133313a046a82	0.0671873823779752
212	0x3fb80ff3751bc73a	0.09399339303106738
213	0xbf233af02f545438	-0.00014671499199239864
214	0xbf9f63068150630b	-0.030651189463330158
215	0x3fbcb6aacce89e4e	0.1121622801080033
216	0x3fa50bd4f6abd02e	0.04110589514849071
217	0x3fbaca6b17865260	0.10465115856488572
218	0x3fa53de5b937ba6b	0.04148786436040982
219	0xbfaa690012d23675	-0.05158233861685072
220	0x3fc824c90e3a6fd4	0.1886226005052537
221	0x3f4eee3df8332c59	0.0009439280114745915
222	0xbfb87074b3a4cb94	-0.09546594034035955
223	0xbfc57964b04b6b00	-0.16776712997565113
224	0xbfbeb1e24c04e81b	-0.11990179401337324
225	0xbf952fedce67e9fb	-0.02069064686109277
226	0xbfb13795a547bb12	-0.06725440297280397
227	0x3fb03f351b31305b	0.06346446908827501
228	0x3fac466315721295	0.055224510543699847
229	0xbf8781b3bfcc34c3	-0.011477855959606825
230	0xbfa0469e9d89e19f	-0.03178878472403145
231	0x3f92c7524db83d1e	0.0183384761749582
232	0xbfb169cc0c764a58	-0.0680205851006489
233	0x3fac31498f04fe32	0.055063532551227104
234	0x3fb1dd9bb0872db3	0.06978772220389011
235	0xbfb9dbf9e215baf4	-0.10101281900072562
236	0xbfb953141ef7624c	-0.09892392879499673
237	0xbfbb390f7886c54a	-0.10633942310848457
238	0x3fbf121a42ee7f1e	0.12136997350762299
239	0xbfa29f78b60d91b7	-0.0363729212029144
240	0x3fbf1d5eb99f5b2e	0.12154190093802406
241	0xbfbfa2a3611b6213	-0.12357541199470061
242	0xbfc88c9dd2980267	-0.19179127486133327
243	0xbfd2e057aecece98	-0.2949427802188693
244	0xbfbe131beb350301	-0.11747908108101159
245	0xbfb8deb93bbb74ef	-0.09714849193865736
246	0xbf8fdcb43af3f4f5	-0.015557678269483047
247	0xbfc45ceaf4c33c97	-0.15908562613774244
248	0xbfbf9b391b022691	-0.12346226605782308
249	0xbfba6480cacd20c9	-0.10309605551913416
250	0x3fc739e4a879ace6	0.18145426012356508
251	0x3fb99aec1b57d5b2	0.10002017657810461
252	0x3fa4e280a96e0c19	0.04079057758556121
253	0x3f68508204032003	0.0029680766457182996
254	0x3fcef9304184347a	0.24197962950748658
255	0xbf90dda0b96a7f85	-0.01647044307412628

linear_relu_stack.4.bias f8 [100]
0	0xbfcae5c1aebc9cd3	-0.2101366141516566
1	0x3fb0016e7485a1f6	0.06252184242988065
2	0x3fdfd5e209ee57fb	0.49742938012911936
3	0x3fb3c2a9e34fb44b	0.07718908118813876
4	0x3fd65864ea9cccd1	0.3491451541078279
5	0x3fe68cfd77c43fbc	0.7047107066336973
6	0xbfa280ee6b08ea93	-0.03613991791322237
7	0xbfc1994322a25a31	-0.1374896926033258
8	0x3ff3ef8a198748e8	1.2459813115315743
9	0x3fbc85e88e45044f	0.11141828034762223
10	0x3ff61a753347fb1b	1.3814594271822844
11	0x3fca1aaa680a09ef	0.203938771057508
12	0x3fe6952de60060e1	0.7057103626457569
13	0x3fd67153345b1520	0.3506668101584456
14	0x3f987b7a7644ac16	0.023908532589455765
15	0x3fed63d3daa5a74e	0.9184359808398115
16	0x3fed1c73f7fbfe3f	0.9097232669300367
17	0xbfdda87a90ae306d	-0.4634081280607976
18	0x3fe5102746e36704	0.6582218536889006
19	0x3fe0c597941df3af	0.5241201298627994
20	0x3fd578251eee7108	0.3354580690445492
21	0xbfc24f264e64436a	-0.14304045512883629
22	0xbfb3df792d2762f8	-0.07762868263615619
23	0x3f830b6cbbb7f730	0.009299134710996165
24	0x3fd7dd1f49c2c544	0.3728712292023213
25	0x3fcee33bee15f389	0.24130963444977407
26	0x3fcaccf907786538	0.2093802725292251
27	0x3fda61ec652daba7	0.4122267711706464
28	0x3fbed40a0dbb93cd	0.12042296252509672
29	0x3fd5b55cc01187d5	0.3391944766682376
30	0x4003285dcb069865	2.394710146082661
31	0x3ff021d759727738	1.008262013819559
32	0xbfc4764439cd521f	-0.15985920736660916
33	0x3fe9907964ee9070	0.7988860102964406
34	0xbfd671c168465eb5	-0.35069308455556875
35	0x3ff113177e67166c	1.0671610772709768
36	0xbfe106b263dd820a	-0.5320674849027125
37	0x3ff29049de02dae5	1.1602266952810905
38	0xbfd43625f647ecf3	-0.31580494929194386
39	0x3fe443a3417c0c9c	0.6332565573687989
40	0x3fce2040fb02e683	0.23535930878079023
41	0x3fa598e756b7d295	0.04218218740053207
42	0x3ffef4fa709df82c	1.9348091506103726
43	0x4001acb1dbbb0482	2.2093236128280873
44	0x3fc65aaf98e99831	0.17464251486234297
45	0xbfece9801461bda3	-0.9035034559328107
46	0x3fc97dc5dc700f6a	0.19915078414498605
47	0xbfe61fa6306a5698	-0.6913634248364415
48	0xbfe1c66fb820afab	-0.5554731937640914
49	0x3fe38665607424de	0.6101557620869718
50	0x3fcd0b49e330d34a	0.22690700143143722
51	0x3fe134fd95c45258	0.5377185750135807
52	0x3fc6c1e9e0e7f7d8	0.17779277307266628
53	0x3fe1ad79442c153c	0.5524259883392584
54	0xbfdfc3160fa9580f	-0.49628211526339866
55	0x3fea48ddf0d2fb85	0.8213948920818984
56	0x3fd7bf8adb1b42ba	0.3710658206664835
57	0xbfd42f9549d48c80	-0.3154042454718322
58	0x3ff6b5e414ee9f75	1.4194069688473665
59	0x3ff36d211cad5087	1.2141429062076285
60	0x3fea1a1f40b8532e	0.8156887306273342
61	0x3ff6dadefd3c646c	1.428435315325511
62	0x3fd079fede7ebd90	0.25744601944003254
63	0x3fe6d550c4d9f324	0.7135394901993988
64	0xbfeaf3da7f5c29e0	-0.8422672736645005
65	0x3fe416b15c734c3e	0.6277701192542577
66	0x3ff0dfd877253974	1.054649796878576
67	0xbfd2db1d8d77fc3c	-0.2946237451105309
68	0x3ff1ebf2f4e1c565	1.1201047483158046
69	0x3fe875ffe2fb20df	0.7644042428228451
70	0x3fc1fc2f2c3b25cb	0.14050855312079444
71	0x3fc5b79f7dea7ddb	0.16966622970811227
72	0x3fde735c9fbd120b	0.4757911262461511
73	0x3fea890eba23913c	0.8292306552434989
74	0xbfd5c7bcdf18a73a	-0.34031602656124316
75	0x3fd649f1be08bb53	0.3482632022668685
76	0xbfc37847a5f4a773	-0.15210815051369372
77	0xbfc3ea480c7800b4	-0.15558720215631683
78	0xbfd66c46a2e903a5	-0.35035863789749505
79	0x3ff7b4e8d7ee0212	1.481667369342294
80	0xbfda875aed4fbc16	-0.4145114247793925
81	0x3fc0a39ed11644b6	0.12999329766583906
82	0x3f8db64dcd469583	0.014507873370187557
83	0x3fedee6f112f9304	0.9353556953106765
84	0x3fef3e758a3c12e0	0.9763744068046343
85	0x3fe8a11c8854f922	0.7696669256909312
86	0x3ff96ffd777412a2	1.5898413339756776
87	0x3fe40b9477714fd9	0.6264135678161394
88	0x3fd656502540939c	0.3490181316176917
89	0x3feb94d6ef938f73	0.861918895647689
90	0x40001ab5146500e9	2.0130406945537413
91	0x3fe0d6f7cb458df0	0.5262412042761166
92	0x3fe370f6841866a3	0.6075394229876178
93	0x3ff654e160c51452	1.3957227497169424
94	0x3fd17dbadc0b0318	0.27329894531799104
95	0x3fdefb0089e284e2	0.4840699526340143
96	0x3fecc6487792f7f9	0.899204476874501
97	0x3fd5da3178df2934	0.34144245914343974
98	0xbfdbdf2860c163fd	-0.43549546669743205
99	0x3ff4e64d183f974c	1.3062258670047013
